app/src/main/assets/converted_model.tflite (tflite, 8296 bytes, 9 tensors)

sequential_2/dense_13/BiasAdd/ReadVariableOp f4 [16]
0.106414676 0.0 0.11045913 -0.01770776 0.0 -0.0005739211 -0.03565128 -0.005592723
0.094897054 0.049542513 0.17114961 0.16297673 0.14858209 0.17031372 0.058160294 0.2704775
00000000: f0ef d93d 0000 0000 6538 e23d dd0f 91bc
00000010: 0000 0000 3173 16ba 1407 12bd 2943 b7bb
00000020: 6359 c23d 17ed 4a3d d841 2f3e 5fe3 263e
00000030: e725 183e b866 2e3e 7d39 6e3d 077c 8a3e

sequential_2/dense_12/BiasAdd/ReadVariableOp f4 [32]
0.19689503 0.020333853 -0.26553458 -0.08323767 0.02859759 -0.16253734 -0.2696122 0.1545761
0.013931855 0.009203683 -0.008888538 0.018075766 -0.25643277 0.22670412 0.23430853 -0.007980258
0.21984124 0.0 0.0 0.17313638 0.034373835 0.10460169 0.17490153 0.018646752
-0.0073022717 0.2052509 0.0910805 0.07883926 -0.1576522 -0.18375632 0.078459375 0.09220429
00000000: da9e 493e 2e93 a63c 26f4 87be 8378 aabd
00000010: 7e45 ea3c 3070 26be 9c0a 8abe 3249 1e3e
00000020: 6f42 643c 0bcb 163c 3ba1 11bc a113 943c
00000030: 284b 83be 2025 683e 93ee 6f3e a1bf 02bc
00000040: 101e 613e 0000 0000 0000 0000 aa4a 313e
00000050: 94cb 0c3d 6939 d63d 6319 333e 13c1 983c
00000060: e547 efbb 4b2d 523e 6a88 ba3d 7a76 a13d
00000070: 946f 21be 9e2a 3cbe 4faf a03d 9ad5 bc3d

sequential_2/dense_11/BiasAdd/ReadVariableOp f4 [16]
0.15289435 -0.07262464 -0.21546803 0.11023441 0.08288359 -0.019259326 0.21390001 -0.2559957
0.16702674 -0.19993748 0.03459059 0.37143886 -0.083042905 0.33022168 0.09865405 -0.10521664
00000000: 5690 1c3e 3abc 94bd a7a3 5cbe 94c2 e13d
00000010: dfbe a93d bcc5 9dbc 9b08 5b3e de11 83be
00000020: 0f09 2b3e 69bc 4cbe ddae 0d3d 3c2d be3e
00000030: 6612 aabd d112 a93e 220b ca3d d27b d7bd

sequential_2/dense_10/BiasAdd/ReadVariableOp f4 [8]
-0.06103779 0.16731085 0.18269105 -0.19552132 0.10960035 -0.04120642 0.3225413 0.35344896
00000000: c302 7abd 8953 2b3e 5d13 3b3e be36 48be
00000010: 2676 e03d 10c8 28bd 2224 a53e 43f7 b43e

sequential_2/dense_10/MatMul f4 [8, 11]
-0.4387183 -0.067434765 -0.37017006 -0.21897216 -0.3979785 0.48668754 -0.499776 -0.5447432
0.34809914 0.2755424 0.06545575 0.4699373 0.5219648 0.526708 -0.30846506 0.5803392
0.009386714 0.7026803 -0.27453223 0.19936585 0.14681213 -0.4138503 0.0026183515 0.5056287
0.37191767 0.19174911 0.032972638 -0.9509319 0.71726215 -1.022646 0.0467484 -0.23840198
0.066773005 0.018789748 0.25629854 0.13816728 -0.043250486 -0.23316695 0.03941961 0.96558076
0.55953324 0.010749933 0.030184913 0.30906138 -0.040373337 -0.4247551 0.76469547 -0.24219333
-0.6497964 0.71159387 -0.39129138 -0.08571001 -0.021059994 -0.02885885 0.3693479 -0.20431022
0.45069912 -0.14533184 0.5478778 0.020491624 -0.56889755 0.64092886 0.38806546 -0.06199337
-0.022663243 -0.08288618 0.2929004 0.4142075 0.011989973 0.28612965 -0.5868658 -0.48467588
-1.3673636 0.62199765 0.31516585 -0.42920846 -0.13764364 -0.0724694 0.13017234 0.2943652
-0.35997358 0.70023465 -1.2507229 -0.7182332 0.1773534 0.0058757374 -0.12365653 0.34616566
00000000: af9f e0be 3d1b 8abd ee86 bdbe 3d3a 60be
00000010: d7c3 cbbe 1c2f f93e a4e2 ffbe 4a74 0bbf
00000020: 0d3a b23e e513 8d3e aa0d 863d 9f9b f03e
00000030: 7c9f 053f 56d6 063f 22ef 9dbe 1c91 143f
00000040: bbca 193c dbe2 333f 7d8f 8cbe 9026 4c3e
00000050: eb55 163e 30e4 d3be a698 2b3b e270 013f
00000060: fe6b be3e e159 443e 510e 073d 4670 73bf
00000070: 7e9e 373f 10e6 82bf 407b 3f3d a61f 74be
00000080: 49c0 883d f5ec 993c 9039 833e b97b 0d3e
00000090: 6c27 31bd 51c3 6ebe 7576 213d 4d30 773f
000000a0: 923d 0f3f 7d20 303c 5a46 f73c 4b3d 9e3e
000000b0: 835e 25bd 8079 d9be 15c3 433f 8701 78be
000000c0: 0f59 26bf 042b 363f 5857 c8be bb88 afbd
000000d0: 0286 acbc 6569 ecbc 2b1b bd3e b336 51be
000000e0: 09c2 e63e dfd1 14be b841 0c3f 0dde a73c
000000f0: 45a3 11bf ea13 243f 84b0 c63e c3ec 7dbd
00000100: 44a8 b9bc 3bc0 a9bd 0bf7 953e 0113 d43e
00000110: 9771 443c 967f 923e d63c 16bf 7027 f8be
00000120: c505 afbf 3d3b 1f3f 6b5d a13e 36c1 dbbe
00000130: 74f2 0cbe d66a 94bd e64b 053e 09b7 963e
00000140: 754e b8be 9442 333f b017 a0bf 22de 37bf
00000150: 219c 353e 4289 c03b a33f fdbd a03c b13e

sequential_2/dense_11/MatMul f4 [16, 8]
0.10469527 -0.15057953 -1.35351 -0.47431687 0.30446988 -0.14920491 0.4791177 0.6400868
0.31268167 -0.8908178 -0.7784969 -0.0152704595 0.529881 0.0546654 -0.60041803 -0.37567037
0.42995232 0.33325088 1.178535 0.40287834 -0.13433927 0.28630248 -0.28542447 -0.33840054
-0.37288725 0.012858204 0.54582834 -0.30722496 0.27217737 0.4629421 -0.104655825 0.11672123
-0.38701475 -0.11273398 -0.23681962 0.019203434 -0.48750573 0.6419552 0.15406173 -0.063914806
-0.3403906 0.29175222 -0.21044691 0.26699978 0.41361257 -0.49592203 0.14377083 0.008752103
0.3844792 0.4158038 -0.40980682 -0.44247198 -0.131077 -0.7594305 -0.081214145 0.5057139
-0.29650956 0.27635753 0.4435791 0.16329405 0.1890073 0.18204199 0.009911702 0.0895146
-0.2297411 0.08456576 -0.2053694 -0.16725944 -0.6514502 -0.6334607 -0.4236186 0.59820694
-0.11711419 0.40795887 -0.13219169 -0.38208655 0.23660098 0.08699551 -0.47260702 0.465466
-0.34233072 -0.5450428 0.080131955 0.28264037 0.50086725 -0.2322162 0.402973 -0.06455598
0.4458882 0.0016482883 -0.35811505 -0.36583772 0.27344275 0.43637538 0.3566342 0.27525777
0.5637002 0.1934248 -0.72172123 0.2689772 0.4722562 -0.3345791 -0.4827554 0.15216294
0.35006678 0.32290584 -0.05305536 -0.95091623 0.020836048 0.70753247 -0.016203336 -0.2707571
-0.2448795 -0.1905042 -0.67187804 -0.17351899 0.7149013 -0.19502541 0.17841747 -0.68779445
-0.08604486 -0.34286174 0.3204793 -0.26500255 0.24399924 0.6512538 -0.1805029 -0.07161154
00000000: 796a d63d 8531 1abe d13f adbf a9d9 f2be
00000010: 7ae3 9b3e 2cc9 18be ea4e f53e bbdc 233f
00000020: d017 a03e a30c 64bf 934b 47bf f330 7abc
00000030: 48a6 073f d4e8 5f3d ffb4 19bf de57 c0be
00000040: b622 dc3e dc9f aa3e 3cda 963f 1246 ce3e
00000050: 3c90 09be 3d96 923e 2823 92be d642 adbe
00000060: 14eb bebe 37ab 523c 68bb 0b3f 974c 9dbe
00000070: d55a 8b3e bf06 ed3e cb55 d6bd 8a0b ef3d
00000080: cc26 c6be 13e1 e6bd d880 72be 8550 9d3c
00000090: 5a9a f9be 2d57 243f 5cc2 1d3e c4e5 82bd
000000a0: ad47 aebe 8c60 953e 657f 57be 32b4 883e
000000b0: 07c5 d33e 7ee9 fdbe a938 133e fb64 0f3c
000000c0: 75da c43e 3ce4 d43e 33d2 d1be b08b e2be
000000d0: 0d39 06be 0a6a 42bf 9a53 a6bd 7776 013f
000000e0: 1ad0 97be bc7e 8d3e cd1c e33e 8e36 273e
000000f0: 218b 413e 3769 3a3e b164 223c 6e53 b73d
00000100: 4041 6bbe d030 ad3d 5b4c 52be 0f46 2bbe
00000110: 71c5 26bf 7b2a 22bf 8ae4 d8be 1724 193f
00000120: 90d9 efbd fcdf d03e 425d 07be d9a0 c3be
00000130: 8747 723e b42a b23d 8cf9 f1be 8f51 ee3e
00000140: f945 afbe ed87 0bbf 391c a43d 3db6 903e
00000150: d638 003f 15ca 6dbe 7a52 ce3e ed35 84bd
00000160: 754b e43e 610b d83a db5a b7be 154f bbbe
00000170: b000 8c3e 986c df3e c298 b63e 96ee 8c3e
00000180: a84e 103f 2711 463e b9c2 38bf 61b7 893e
00000190: 91cb f13e f44d abbe b72b f7be 9ad0 1b3e
000001a0: f43b b33e ea53 a53e 9450 59bd 3f6f 73bf
000001b0: 5cb0 aa3c d920 353f dcbc 84bc ada0 8abe
000001c0: b1c1 7abe 8813 43be 3300 2cbf f6ae 31be
000001d0: c603 373f beb4 47be 12b3 363e 4c13 30bf
000001e0: 4a38 b0bd 938b afbe dd15 a43e 6aae 87be
000001f0: f0da 793e 92b8 263f c1d5 38be 12a9 92bd

sequential_2/dense_12/MatMul f4 [32, 16]
0.19491756 -0.11513998 0.11725513 0.1088723 -0.2955521 0.34431174 -0.28726578 -0.013862908
0.6441908 -0.28204536 -0.16636868 -0.19831046 0.2268957 0.49091402 -1.0489042 -0.2373021
0.13973175 0.3056186 0.3040343 0.30041668 0.32913917 -0.29414073 0.09284913 0.28634357
0.24429134 0.28663617 0.01933605 0.53614783 -0.11548801 0.14744312 0.5381012 -0.28482458
-0.30342606 0.31164283 0.4146667 0.10327199 -0.13460258 0.021460215 -0.28561014 0.24638113
-1.090433 0.05476423 -0.023613963 -0.19613013 0.10823035 -0.17573586 0.85290575 -0.12518904
0.32227135 0.26990014 0.52085274 -0.19071254 -0.1512768 -0.071365654 0.05624192 0.3174013
-0.46556666 0.17236474 -0.091409236 -0.38409033 -0.49840352 -0.2940336 -0.031284954 0.14634997
-0.5014711 -0.06582682 -0.23434924 0.049574144 0.09429348 -0.002531472 -0.22320174 0.27862248
0.6942057 0.08654222 0.3267058 -0.1524897 0.32176903 0.26013815 -0.32902765 -0.3611025
-0.22296156 -0.025658073 -0.1461661 0.504784 0.55033684 -0.3751459 0.5264676 -0.23080975
0.15414016 -0.1361909 0.36810687 0.10858153 0.1656892 0.9377033 0.003766837 -0.033807963
0.25414923 0.31677443 0.1158983 0.4861562 0.20414896 0.16491653 0.1301462 0.07186849
-0.48091325 0.1996229 0.32307392 0.09294566 -0.10636864 0.040568903 1.0017635 0.19665052
0.352894 0.16876122 -0.20617868 -0.72629166 0.1734942 -0.12283191 0.43416548 -0.20518139
0.29624337 -0.09100235 0.22574595 0.51200455 0.11490765 -0.26642072 0.734276 -0.57759666
-0.2867042 -0.0858867 0.11359774 0.42322192 -0.0881018 0.2127814 -0.5447392 0.23747149
0.040790357 -0.7300059 0.31989038 0.1913665 -0.2390011 0.15609139 -0.83901435 -0.19445075
-0.33352777 0.21978672 0.12696609 -0.39715722 -0.10049399 0.21945453 0.26301295 -0.001103371
0.45231518 -0.079625085 -0.68351585 -0.6223647 0.45418686 -0.31269288 0.37420264 -0.30925924
-0.7647482 0.35548326 0.24301444 -0.277529 -0.22619613 0.284652 -0.21231881 -0.18102525
0.041215967 -0.10678763 -0.44993877 0.09637506 0.53451294 -0.0036904668 0.13082056 -0.20743887
-0.019142821 -0.28934696 0.14200516 0.014277575 0.25267646 -0.30905366 0.24182439 -0.4105609
0.8199265 0.2123184 -0.33549696 0.066284806 0.44143164 0.679091 0.046598777 0.73070896
-0.06727172 -0.2069989 0.69603944 0.049238708 0.109630644 -0.0023831509 -0.2711114 0.21667375
-0.4581241 -0.12132789 0.1670794 -0.62544435 -0.51841706 0.15819913 0.3952846 0.32809615
-0.43889338 -0.1721787 0.035051327 0.53005916 -0.58399063 0.24005185 0.05310317 0.054110497
0.60636264 -0.5113275 -0.10665478 0.29778686 0.23197617 0.050834738 -0.9866236 -0.27253962
0.3086478 0.08883376 -0.47669953 0.09988533 0.056618568 -0.32303444 0.12092349 0.30425125
0.59900767 0.39817753 0.091183566 -0.15009724 0.14322463 0.6903805 0.3080601 0.03777952
-0.03708608 -0.4646837 0.18633856 0.30834356 0.1367537 0.112037584 -0.4554285 0.0033921534
0.07188497 -0.79165906 -0.07608029 0.056134578 0.17539999 0.13861062 -0.6709599 0.38529852
00000000: 7898 473e 83ce ebbd 7523 f03d 71f8 de3d
00000010: 9b52 97be a149 b03e 8014 93be 4021 63bc
00000020: b0e9 243f 4068 90be 8d5c 2abe e611 4bbe
00000030: 5957 683e 1559 fb3e 7e42 86bf 52ff 72be
00000040: d715 0f3e 0b7a 9c3e 62aa 9b3e 37d0 993e
00000050: ee84 a83e 9d99 96be af27 be3d a09b 923e
00000060: 8227 7a3e fac1 923e a366 9e3c fc40 093f
00000070: fa84 ecbd 54fb 163e 00c1 093f 87d4 91be
00000080: a95a 9bbe a68f 9f3e 324f d43e 4480 d33d
00000090: 42d5 09be 55cd af3c 7e3b 92be 564b 7c3e
000000a0: 4f93 8bbf 7550 603d 1272 c1bc 56d6 48be
000000b0: e0a7 dd3d 1af4 33be 0858 5a3f 8e31 00be
000000c0: c000 a53e 5a30 8a3e 9b56 053f 264a 43be
000000d0: 4ee8 1abe 2828 92bd ed5d 663d 6c82 a23e
000000e0: c15e eebe 6280 303e c434 bbbd 7da7 c4be
000000f0: bf2e ffbe 928b 96be a724 00bd c4dc 153e
00000100: 6960 00bf 36d0 86bd 3ff9 6fbe 420e 4b3d
00000110: f11c c13d 0de7 25bb ff8e 64be 9ba7 8e3e
00000120: 77b7 313f 0c3d b13d fc45 a73e 4326 1cbe
00000130: e9be a43e d430 853e 5076 a8be 6de2 b8be
00000140: 0950 64be e130 d2bc 91ac 15be 8639 013f
00000150: e0e2 0c3f 2013 c0be 95c6 063f 6459 6cbe
00000160: ebd6 1d3e a175 0bbe 8178 bc3e fe5f de3d
00000170: 6eaa 293e 530d 703f 0add 763b 387a 0abd
00000180: d91f 823e 4230 a23e 175c ed3d 77e9 f83e
00000190: 6d0c 513e e1df 283e 0c45 053e c92f 933d
000001a0: 433a f6be f269 4c3e f269 a53e 4b5a be3d
000001b0: cdd7 d9bd 942b 263d c939 803f c15e 493e
000001c0: 86ae b43e becf 2c3e 8120 53be 40ee 39bf
000001d0: 77a8 313e 4c8f fbbd f04a de3e 121b 52be
000001e0: 36ad 973e 715f babd f229 673e bb12 033f
000001f0: b454 eb3d 4c68 88be 83f9 3b3f 60dd 13bf
00000200: e5ca 92be 5ee5 afbd efa5 e83d 8bb0 d83e
00000210: b76e b4bd 5ee3 593e 0774 0bbf ba2b 733e
00000220: ca13 273d abe1 3abf acc8 a33e 94f5 433e
00000230: b4bc 74be 6cd6 1f3e a5c9 56bf 191e 47be
00000240: 27c4 aabe c50f 613e 6603 023e 3158 cbbe
00000250: cbcf cdbd b0b8 603e a2a9 863e fd9e 90ba
00000260: db95 e73e 7a12 a3bd e5fa 2ebf 4b53 1fbf
00000270: 2e8b e83e 4819 a0be 7d97 bf3e 3a57 9ebe
00000280: 8ac6 43bf e701 b63e c7d8 783e 4818 8ebe
00000290: f59f 67be e8bd 913e 1a6a 59be af5e 39be
000002a0: 13d2 283d 79b3 dabd 605e e6be 4a60 c53d
000002b0: d7d5 083f c2db 71bb d3f5 053e db6a 54be
000002c0: 68d1 9cbc 4925 94be cd69 113e 7dec 693c
000002d0: cf5e 813e 483c 9ebe d0a0 773e 0a35 d2be
000002e0: b4e6 513f ff69 593e 42c6 abbe 54c0 873d
000002f0: 5403 e23e e8d8 2d3f 5cde 3e3d be0f 3b3f
00000300: c1c5 89bd 85f7 53be a42f 323f 87ae 493d
00000310: 0886 e03d a32e 1cbb 1dcf 8abe b9df 5d3e
00000320: 3e8f eabe c27a f8bd dd16 2b3e 1f1d 20bf
00000330: fbb6 04bf f4fe 213e be62 ca3e 38fc a73e
00000340: a2b6 e0be 9d4f 30be fb91 0f3d f5b1 073f
00000350: 6980 15bf 27d0 753e b682 593d f8a2 5d3d
00000360: 953a 1b3f 5ce6 02bf d26d dabd 8577 983e
00000370: 298b 6d3e 1638 503d 5d93 7cbf 508a 8bbe
00000380: 1607 9e3e 79ee b53d f611 f4be ae90 cc3d
00000390: dfe8 673d c564 a5be bca6 f73d d2c6 9b3e
000003a0: 9158 193f eddd cb3e 73be ba3d 17b3 19be
000003b0: 7aa9 123e c7bc 303f 0eba 9d3e b3be 1a3d
000003c0: 93e7 17bd 06eb edbe 89cf 3e3e 35df 9d3e
000003d0: 2909 0c3e f673 e53d ed2d e9be e44e 5e3b
000003e0: 6d38 933d 2baa 4abf fccf 9bbd 5fed 653d
000003f0: 0e9c 333e f1ef 0d3e 07c4 2bbf d945 c53e

sequential_2/dense_13/MatMul f4 [16, 32]
-0.06335889 0.35841057 0.6905644 0.55947924 -0.009932844 -0.81830066 0.06924503 0.2487518
-0.08341332 -0.4314333 -0.6640638 -0.4764206 0.7977803 -0.24940443 -0.18364364 -0.095113166
0.8201683 0.15367076 -0.28268406 -0.12085305 0.019492498 0.45650712 0.5012765 0.28845748
-0.14086999 -0.5666034 -0.18452767 -0.50814986 0.06705022 0.36507836 -0.26987126 0.4021871
0.22520015 -0.24056207 -0.1410527 -0.33722612 0.18426028 -0.17339508 -0.26245254 0.11107084
-0.30818558 -0.034711987 0.30633566 0.07271722 -0.35342973 -0.03454137 -0.16457745 0.10023752
0.17424402 -0.1328236 0.03790891 -0.3009381 0.1283997 -0.3046402 -0.12784977 -0.12239799
-0.11026272 -0.118857145 -0.05793515 0.06750661 -0.017016798 0.21912786 0.08863717 -0.25430793
-0.56170547 -0.16423208 0.38599318 -0.18619868 -0.24166773 -0.67317957 0.41508058 0.4569539
-0.31982708 -0.06607276 -0.3641632 0.27678213 -0.13060908 -0.49528074 0.5602488 0.26482612
0.81997985 0.08340719 -0.049030513 -0.21960838 -0.32388726 -0.0894492 -0.20173843 -0.20152223
0.2622966 0.23756495 -0.06782701 0.05292728 0.3383484 0.43943655 -0.21291111 0.2504224
0.11026778 -0.1542194 0.0026843029 -0.19381858 -0.27034968 0.07685864 0.22536859 -0.19311891
-0.039900992 0.30787927 -0.060339905 -0.10386407 -0.18172629 -0.016491832 0.30480245 -0.15258002
-0.31121936 -0.29645544 -0.04836166 -0.26535493 -0.108027846 -0.034407247 0.19728318 -0.017003495
-0.2946767 0.15380868 -0.25811896 0.14560619 0.111029655 -0.14939153 0.30637205 -0.32963905
-0.2904486 -0.26593313 -0.004900664 -0.002587825 -0.28491834 -0.29000226 -0.33582947 -0.26533496
-0.050887942 0.12576029 -0.12425792 0.061730385 0.036016166 -0.1598195 0.24003622 -0.31852007
0.2828395 -0.08935341 0.26733586 -0.14204541 -0.1286997 -0.21907915 -0.35349816 -0.10352647
-0.29383326 0.22456774 0.11437288 -0.30342814 0.3445767 -0.27838913 -0.27424642 0.25928494
0.44536358 0.06536477 -0.32100984 -0.019981386 0.5723546 0.39717418 0.013867324 -0.34007114
0.33444524 0.4767617 0.5249427 0.5737512 -0.4462938 0.38374868 -0.12715015 0.32342792
-0.27876028 -0.20243974 -0.14999457 -0.1109826 0.08304903 0.07921475 -0.38008937 -0.022266151
-0.18904644 0.28255007 0.3039885 0.5460351 0.027022274 -0.49371517 0.45535603 -0.027225604
0.1948016 0.25393778 -0.33282608 -0.32359096 0.061562564 0.7355765 0.30528975 -0.5117088
0.3838755 0.29094356 0.48010516 0.259282 -0.22655338 0.48604035 0.11298344 0.1370453
-0.38803223 -0.0468947 0.18834451 0.26120162 0.058517423 -0.02845892 -0.40159872 0.09200469
0.20749529 0.3806437 0.2693109 0.14591923 0.11174105 -0.579426 0.5754104 -0.2954178
-0.17223936 -0.30028066 0.25346184 -0.3400504 -0.3563738 -0.11313765 -0.25433707 -0.20487735
0.03532869 -0.19635507 0.32587826 -0.22034246 -0.12140774 0.20780244 0.17528763 -0.05063146
-0.12742746 -0.250489 -0.15312742 -0.20789242 0.2919338 -0.23382802 -0.20408687 -0.35425746
0.15398888 0.077767015 0.08654202 -0.00021043197 -0.0063174665 0.16239735 0.35139683 0.017091582
00000000: 4ec2 81bd 9781 b73e d4c8 303f 083a 0f3f
00000010: 5ebd 22bc 277c 51bf 57d0 8d3d cbb8 7e3e
00000020: 9ad4 aabd d3e4 dcbe 1600 2abf 67ed f3be
00000030: 543b 4c3f e063 7fbe 140d 3cbe b1ca c2bd
00000040: 8df6 513f de5b 1d3e f7bb 90be ce81 f7bd
00000050: bbae 9f3c 4dbb e93e a853 003f b3b0 933e
00000060: 3940 10be ec0c 11bf d2f4 3cbe 1c16 02bf
00000070: a051 893d 8deb ba3e 912c 8abe 78eb cd3e
00000080: de9a 663e e755 76be 1e70 10be e7a8 acbe
00000090: baae 3c3e 7b8e 31be 2e60 86be 1c79 e33d
000000a0: 80ca 9dbe 282e 0ebd 07d8 9c3e c4ec 943d
000000b0: bef4 b4be 407b 0dbd fe86 28be 5449 cd3d
000000c0: 066d 323e e902 08be 6046 1b3d 8f14 9abe
000000d0: 367b 033e cdf9 9bbe 0deb 02be ccab fabd
000000e0: 6cd1 e1bd 606b f3bd 684d 6dbd e840 8a3d
000000f0: d066 8bbc 0e63 603e 6887 b53d a634 82be
00000100: eecb 0fbf 742c 28be e6a0 c53e deaa 3ebe
00000110: bf77 77be 7f55 2cbf 7185 d43e ddf5 e93e
00000120: 60c0 a3be 2851 87bd 9973 babe 63b6 8d3e
00000130: 63be 05be 7095 fdbe 776c 0f3f 4a97 873e
00000140: 33ea 513f 64d1 aa3d 38d4 48bd 05e1 60be
00000150: 8dd4 a5be 2431 b7bd 8594 4ebe d85b 4ebe
00000160: bd4b 863e 3a44 733e e3e8 8abd 47ca 583d
00000170: 003c ad3e d4fd e03e 5f05 5abe 5d37 803e
00000180: 13d4 e13d b1eb 1dbe 21eb 2f3b 6178 46be
00000190: 466b 8abe 1068 9d3d 06c7 663e f7c0 45be
000001a0: 396f 23bd 5aa2 9d3e fa26 77bd afb6 d4bd
000001b0: 7516 3abe e119 87bc 110f 9c3e f03d 1cbe
000001c0: 2558 9fbe 02c9 97be e016 46bd 9adc 87be
000001d0: b43d ddbd 9dee 0cbd 9a04 4a3e ea4a 8bbc
000001e0: dddf 96be 0680 1d3e 2b28 84be ca19 153e
000001f0: 8463 e33d 18fa 18be ccdc 9c3e 73c6 a8be
00000200: aeb5 94be 6328 88be c095 a0bb 8098 29bb
00000210: d1e0 91be 2d7b 94be d7f1 abbe fcd9 87be
00000220: e06f 50bd 4ec7 003e f07a febd 00d9 7c3d
00000230: b085 133d b9a7 23be 0ecc 753e 1015 a3be
00000240: 57d0 903e ecfe b6bd 3fe0 883e 5a74 11be
00000250: dbc9 03be 4956 60be b6fd b4be b005 d4bd
00000260: 5071 96be 16f5 653e 543c ea3d ef5a 9bbe
00000270: 5b6c b03e 0589 8ebe 076a 8cbe ffc0 843e
00000280: b206 e43e f7dd 853d 675b a4be 01b0 a3bc
00000290: d585 123f 6a5a cb3e c633 633c ce1d aebe
000002a0: 683c ab3e 1c1a f43e a562 063f 5ce1 123f
000002b0: 9f80 e4be b57a c43e a633 02be 5898 a53e
000002c0: abb9 8ebe 5d4c 4fbe 2d98 19be d84a e3bd
000002d0: 9c15 aa3d 583b a23d 139b c2be 8167 b6bc
000002e0: 6495 41be 67aa 903e 61a4 9b3e f5c8 0b3f
000002f0: d15d dd3c 3cc8 fcbe 6d24 e93e 3b08 dfbc
00000300: 127a 473e 2204 823e 2e68 aabe b7ad a5be
00000310: 0729 7c3d be4e 3c3f f04e 9c3e 59ff 02bf
00000320: 548b c43e 8ef6 943e 58d0 f53e 9cc0 843e
00000330: 9cfd 67be 48da f83e dd63 e73d 9a55 0c3e
00000340: 29ac c6be a814 40bd 62dd 403e 38bc 853e
00000350: f7af 6f3d ae22 e9bc 599e cdbe f46c bc3d
00000360: a579 543e bbe3 c23e 1ee3 893e da6b 153e
00000370: 7ed8 e43d 4355 14bf 194e 133f 0041 97be
00000380: 845f 30be 63be 99be c0c5 813e 161b aebe
00000390: a076 b6be b6b4 e7bd 7838 82be 5ecb 51be
000003a0: d1b4 103d 4e11 49be 84d9 a63e 74a1 61be
000003b0: 9fa4 f8bd 2aca 543e 9a7e 333e ef62 4fbd
000003c0: 587c 02be 1840 80be 6fcd 1cbe c0e1 54be
000003d0: 5978 953e 9d70 6fbe 26fc 50be 3c61 b5be
000003e0: 43af 1d3e 5044 9f3d f13c b13d 67a7 5cb9
000003f0: c002 cfbb 7e4b 263e 49ea b33e a503 8c3c

sequential_2/dense_14/MatMul f4 [1, 16]
-0.7175801 0.13320059 -0.5677068 0.080646925 0.16088563 0.62840337 0.61089236 -0.58016557
-0.85030556 0.42963925 -0.7298954 1.0288762 0.9969324 -0.5416282 -0.70652276 0.7643877
00000000: 54b3 37bf bc65 083e 3c55 11bf 372a a53d
00000010: 34bf 243e 0bdf 203f 7163 1c3f bb85 14bf
00000020: a0ad 59bf adf9 db3e 6dda 3abf 37b2 833f
00000030: f636 7f3f 25a8 0abf adde 34bf eaae 433f
